notebook/dlinear.pt.ckpt (torch, 5407 bytes, 4 tensors)

linear_seasonal.weight f4 [7, 30]
00000000: 9b89 13be 735b fdbd bae9 e3bd cfb6 debd
00000010: 17e2 d7bd 5473 b9bd e722 a2bd 8a0f 82bd
00000020: b631 7bbd f30f 3cbd dd10 49bd 0bb5 55bd
00000030: dc0b 4bbd 4750 86bd d04a 81bd 2b43 81bd
00000040: d386 73bd 9abf 7dbd aa32 66bd 7316 70bd
00000050: 26b8 54bd 5277 50bd f9d8 06bd adae 1bbc
00000060: 3a3d fc3c 7c47 8f3d e6c6 f43d 08b5 233e
00000070: 8491 403e a9d3 4c3e bcd0 0cbe 1af4 febd
00000080: be8a e7bd 66c1 dcbd 493f d5bd 2e41 a8bd
00000090: 9bc3 96bd 9a0f 64bd ef98 29bd fb30 c1bc
000000a0: 2856 88bc 2b71 b9bc 4792 efbc 2614 29bd
000000b0: 2295 11bd 0cdc 41bd 7c00 09bd 55d9 2dbd
000000c0: df45 22bd 9506 22bd 9d88 1dbd 5b16 fbbc
000000d0: b688 70bc a1ed 813c ba51 683d 5f1f c63d
000000e0: 3f0d 0b3e c3f4 2f3e fea0 493e 7f95 523e
000000f0: ca39 f7bd a58b d1bd 46f4 b7bd 8eda a7bd
00000100: 2d79 a2bd f4a9 99bd 76ff 9bbd 8893 89bd
00000110: caba 5bbd 0a5a c4bc 19ba acbc 8b67 adbc
00000120: 80d9 ebbc c4c6 3fbd f698 46bd cc37 5abd
00000130: a222 52bd 29a8 5dbd 0d1a 60bd 0d6e 65bd
00000140: 8f08 55bd 4852 55bd b3c8 16bd 303c 51bc
00000150: 7039 db3c 3197 7a3d f077 d83d edad 173e
00000160: ed8b 353e 2d65 433e 384c 18be 4ea3 03be
00000170: a78a e8bd 7cec d7bd f25a cdbd 1abf b3bd
00000180: 2a33 c0bd 6326 b4bd d188 a7bd 9c30 40bd
00000190: fd6a fcbc 35aa f0bc 6fcc d3bc 28ce 33bd
000001a0: 73ff 47bd da89 54bd 28e8 3fbd 108f 50bd
000001b0: d80a 36bd 701e 50bd 7e2d 37bd bb9d 3bbd
000001c0: 5be0 d5bc 5907 10bb 25ca 1a3d bc4f 9c3d
000001d0: d684 013e 8292 2a3e fbbb 443e f282 503e
000001e0: 9622 00be c6d4 e0bd 9f47 c9bd f0c6 b8bd
000001f0: fc34 acbd babb 87bd 4a48 87bd a8f6 86bd
00000200: e501 84bd 809d 3ebd b807 cfbc 5cf2 28bc
00000210: 7ffa 12bc 4237 abbc 31da eebc 6dec 27bd
00000220: 6525 21bd bf2f 29bd 1563 29bd 8601 41bd
00000230: 100a 40bd cad4 39bd df7d f5bc 7f61 8ebb
00000240: 3b91 113d 64cb 903d 7896 ea3d 537b 1c3e
00000250: d4bf 393e bab9 463e 8cf0 0bbe 7dfd fdbd
00000260: 93dd e7bd caed d9bd 17ee c9bd 2373 95bd
00000270: a0e9 88bd b45c 6ebd bd82 6ebd 5ecf 34bd
00000280: 3ffe d6bc 2468 42bc b9d5 d7ba b4f4 a1bb
00000290: 2340 0abb 8634 8cbc 92c8 64bc d755 a7bc
000002a0: df41 cabc b33f e7bc 2332 05bd 3fa8 f2bc
000002b0: 8fb5 1dbc de65 9d3c 2a51 7a3d 2ba3 cd3d
000002c0: 5185 0c3e 242d 303e 3199 493e a5f7 513e
000002d0: 7ef4 01be aade e2bd 7f92 cabd 075c bcbd
000002e0: f221 b2bd b6ad 91bd f296 88bd 0343 67bd
000002f0: 4d98 53bd 8c1e 3ebd 25c4 1bbd 6592 e6bc
00000300: f209 58bc 87a8 59bc 3fd2 37bc 341b 89bc
00000310: e7b7 96bc f4c7 cdbc eab0 efbc b2b7 1cbd
00000320: 148d 2abd 4ae1 35bd 1a64 f4bc c3b8 1cbb
00000330: d609 163d 892d 963d 0952 f03d 2bf1 1d3e
00000340: fb8f 3a3e 26a9 463e
-0.14407961 -0.12370958 -0.11128564 -0.10874712 -0.1054117 -0.090552 -0.07916813 -0.0635062
-0.061326705 -0.045913648 -0.049088348 -0.05217461 -0.049571857 -0.065582804 -0.063130975 -0.063116394
-0.05945475 -0.061950304 -0.05620066 -0.05861516 -0.05193343 -0.050895043 -0.032921765 -0.009502095
0.030790914 0.069960564 0.11951999 0.15987027 0.1880551 0.20002617 -0.13751501 -0.124489024
-0.1130576 -0.10779075 -0.10412461 -0.08215557 -0.073615275 -0.05567894 -0.041405614 -0.023582926
-0.016642645 -0.02263697 -0.029244555 -0.04127898 -0.035542615 -0.047328994 -0.033447728 -0.042443592
-0.039617416 -0.03955706 -0.038460363 -0.030650308 -0.014681032 0.01586038 0.056718566 0.09673952
0.13579272 0.17183213 0.1969032 0.2056484 -0.12071569 -0.10231713 -0.08982138 -0.08195983
-0.07933269 -0.07503119 -0.07617085 -0.067175925 -0.053644933 -0.023968715 -0.021084832 -0.021167537
-0.028790236 -0.046820417 -0.04848572 -0.05327587 -0.05130256 -0.05411545 -0.054712344 -0.056013156
-0.052010115 -0.052080423 -0.036812495 -0.0127706975 0.026760787 0.061179344 0.10569751 0.14812441
0.17729159 0.19081564 -0.14872825 -0.12855265 -0.11354571 -0.10543153 -0.10027112 -0.08776684
-0.09384759 -0.08796384 -0.081803925 -0.046921358 -0.030812735 -0.029378036 -0.025854317 -0.043897778
-0.0488276 -0.051889278 -0.04685226 -0.050917685 -0.044443935 -0.050810277 -0.04472112 -0.04580472
-0.026107958 -0.0021977036 0.037790436 0.076323956 0.12648329 0.16657451 0.19212334 0.20362452
-0.12513193 -0.10978083 -0.09828114 -0.09022319 -0.084085435 -0.06627603 -0.06605585 -0.06590015
-0.06445674 -0.046536922 -0.025272235 -0.010311689 -0.008970856 -0.020900372 -0.029156776 -0.040996958
-0.039342303 -0.0413053 -0.041354258 -0.047120593 -0.046884596 -0.045368947 -0.029967247 -0.0043451185
0.035538893 0.07070044 0.11454481 0.1528142 0.18139583 0.19406787 -0.1366598 -0.12401865
-0.11321559 -0.10641058 -0.09859865 -0.07297351 -0.066851854 -0.058193877 -0.05823015 -0.044143073
-0.02624428 -0.011865649 -0.0016466893 -0.004942501 -0.0021095357 -0.017114889 -0.013963835 -0.020426674
-0.024689613 -0.028228616 -0.032518517 -0.029621242 -0.0096258065 0.019213613 0.06111256 0.100408874
0.13722731 0.1720472 0.19687344 0.20504625 -0.12690923 -0.11077626 -0.09891223 -0.0919724
-0.08697881 -0.07113211 -0.066694155 -0.05646039 -0.051658917 -0.04641585 -0.038028855 -0.028145978
-0.013185965 -0.013284809 -0.01121956 -0.016736604 -0.018398238 -0.02511976 -0.029259164 -0.038261123
-0.04163845 -0.044404306 -0.029832888 -0.0023913838 0.036630474 0.07332904 0.11734397 0.1542403
0.18218987 0.19400463

linear_seasonal.bias f4 [7]
00000000: 2485 63bd 541d 6a3c 0f92 c43c 9f7e 16bd
00000010: ded9 163d c92a f13d 1960 5abc
-0.055546895 0.014289219 0.023995427 -0.03674185 0.036828868 0.11775739 -0.0133285755

linear_trend.weight f4 [7, 30]
00000000: 7522 303c 04d8 3d3c 27db 4c3c cc3a 5d3c
00000010: ce26 6f3c 693f 813c ecae 8b3c 70d9 963c
00000020: a7b6 a23c 7453 af3c 23ce bc3c 9711 cb3c
00000030: ec57 da3c d3af ea3c d387 fb3c 8f97 063d
00000040: 6cf4 0f3d 31ee 193d 619a 233d 39f6 2c3d
00000050: cf02 363d 88c3 3e3d ee2e 473d 9f51 4f3d
00000060: 2b2a 573d 4eb1 5e3d 6add 653d 4bad 6c3d
00000070: 1b1e 733d 022d 793d e701 793c e7fb 813c
00000080: 2cf7 873c 906f 8e3c 7073 953c 2eee 9c3c
00000090: c4f0 a43c 5d74 ad3c aa73 b63c cbf4 bf3c
000000a0: 5e02 ca3c 9297 d43c 51cc df3c b6ac eb3c
000000b0: ebc5 f73c 7020 023d 6a9e 083d ca70 0f3d
000000c0: e20d 163d fd76 1c3d daa6 223d e399 283d
000000d0: f54e 2e3d ddcc 333d 1116 393d 7926 3e3d
000000e0: 30f9 423d 9389 473d ebd9 4b3d 62e4 4f3d
000000f0: 90a5 54bc eb74 39bc 9c83 1bbc 806c f5bb
00000100: 9d66 adbb 49fa 3fbb be2f c6b9 9a34 1b3b
00000110: 6bea ad3b 0083 0a3c 9bd7 413c 7fc4 7c3c
00000120: cd25 9e3c d51b c03c 8127 e33c dde5 033d
00000130: f705 173d b53d 2b3d a5cd 3e3d 6da8 513d
00000140: 3bb1 633d 69c4 743d 846d 823d 250f 8a3d
00000150: aa49 913d 6d1e 983d f886 9e3d f587 a43d
00000160: ef1a aa3d e147 af3d 3d85 a93c 4807 ae3c
00000170: 80f3 b23c 394a b83c 2a1a be3c 5156 c43c
00000180: de08 cb3c 562a d23c 38ba d93c 33bf e13c
00000190: fa4a ea3c 7454 f33c bef6 fc3c 049d 033d
000001a0: 04e8 083d a36f 0e3d f13e 143d ca5c 1a3d
000001b0: 0e4f 203d c61e 263d 0ec7 2b3d f63e 313d
000001c0: af77 363d 567a 3b3d 6b4d 403d 44ee 443d
000001d0: 5d5b 493d c991 4d3d b78f 513d b74f 553d
000001e0: 7bcc 37bc 9b11 1cbc 37a2 fbbb 2ff9 b9bb
000001f0: 5b76 64bb c785 93ba 10da b83a 7f03 873b
00000200: 4d2d e53b 97bf 243c 3e42 5a3c b185 893c
00000210: cfe7 a73c 3628 c83c 7c4d e93c 52d2 053d
00000220: cda6 173d 2a55 2a3d bd43 3c3d bf84 4d3d
00000230: d819 5e3d 50eb 6d3d 68df 7c3d d37a 853d
00000240: 261d 8c3d 1d5d 923d f83b 983d cfbb 9d3d
00000250: 80da a23d 509c a73d 78fb 183c 5b44 283c
00000260: 2deb 383c 23e1 4a3c 9541 5e3c 4df0 723c
00000270: 457d 843c b02e 903c fa7e 9c3c 8c7c a93c
00000280: a940 b73c 5ebe c53c 0b15 d53c fd4c e53c
00000290: baca f53c 1363 033d 592f 0c3d 4458 153d
000002a0: fc2e 1e3d 1fbb 263d 5801 2f3d 0cfe 363d
000002b0: e4a1 3e3d 67ef 453d 77e4 4c3d 267e 533d
000002c0: edbd 593d 9da2 5f3d 062f 653d 4d5e 6a3d
000002d0: 9516 5dbc d4ea 3fbc 34df 1fbc 5917 fabb
000002e0: 7e14 aebb ac1b 39bb 3b7e 21b9 bf7d 303b
000002f0: d44b bb3b a03e 123c 905c 4a3c 73fc 823c
00000300: 57ce a23c 5a9c c43c 9c57 e73c d2a1 053d
00000310: d448 183d f0d8 2b3d 0aa7 3e3d 2ab7 503d
00000320: 0801 623d 947e 723d be17 813d da8b 883d
00000330: 5097 8f3d 1d32 963d 5356 9c3d ef10 a23d
00000340: 3a5f a73d a74e ac3d
0.010750403 0.011587147 0.012503422 0.013502788 0.014596654 0.015777307 0.017051183 0.01841423
0.019862486 0.021402098 0.023047512 0.02478866 0.026653253 0.028648293 0.030704414 0.03285938
0.03514521 0.037580673 0.03994215 0.042227004 0.044436272 0.046573192 0.04862874 0.05061495
0.05253045 0.05436831 0.05611936 0.057782453 0.059354883 0.06083394 0.015198207 0.015867187
0.016597353 0.017387182 0.018243521 0.019156542 0.020134337 0.02117365 0.02227195 0.023432156
0.024659332 0.02595118 0.027319105 0.028768878 0.030245742 0.031769216 0.0333542 0.035019673
0.036634333 0.038199414 0.039709903 0.041162383 0.042555768 0.043896545 0.04518706 0.04642341
0.047600925 0.048715185 0.04976837 0.050754912 -0.012978926 -0.011319379 -0.009491827 -0.007489741
-0.0052917735 -0.0029293469 -0.00037801074 0.0023682476 0.005307486 0.008454084 0.0118311895 0.015427708
0.019305134 0.023450771 0.027728798 0.032201637 0.036870923 0.041806895 0.046582837 0.051186014
0.055588942 0.059757624 0.06368545 0.0674117 0.070941284 0.07427678 0.07740587 0.08033744
0.083059184 0.08558632 0.020693416 0.021243706 0.021844625 0.02249633 0.023205835 0.02396694
0.024784502 0.025654953 0.026578054 0.027556991 0.028600205 0.029703356 0.030879375 0.032132164
0.033424392 0.034774434 0.036192838 0.037686147 0.039137892 0.04055669 0.04193788 0.043272935
0.044547733 0.045770966 0.04694883 0.04807879 0.049159396 0.05018786 0.051162448 0.052077975
-0.011218186 -0.009525682 -0.0076792496 -0.005675457 -0.0034860584 -0.0011255079 0.0014103074 0.00412029
0.0069939257 0.010055444 0.013321457 0.016787382 0.020496277 0.024433237 0.02847933 0.03267128
0.037024308 0.041585125 0.045963038 0.050175425 0.054223865 0.05808574 0.061736494 0.065175675
0.06841497 0.07146666 0.07433313 0.07701837 0.07951832 0.08184111 0.009337299 0.010270203
0.011286539 0.012382778 0.013565441 0.0148278 0.016173014 0.017600387 0.019103516 0.020689271
0.0223697 0.024138626 0.02601101 0.027990812 0.030003894 0.032076906 0.03422484 0.03646113
0.038619027 0.040705796 0.04272589 0.04467587 0.04654111 0.048324015 0.05002257 0.051633976
0.053159643 0.05459844 0.05595305 0.05721884 -0.0134941535 -0.011713702 -0.009757806 -0.007632178
-0.0053125015 -0.0028245253 -0.00015401181 0.002693042 0.0057158265 0.008926064 0.01235117 0.015989518
0.019873781 0.024000335 0.028240018 0.032625027 0.03717883 0.041954935 0.04654602 0.05095593
0.055176765 0.059202746 0.063033566 0.066672996 0.070112824 0.07333777 0.076336525 0.07913386
0.0817246 0.08413439

linear_trend.bias f4 [7]
00000000: b352 2d3d ca2d 523c a9eb adbc d518 d5bb
00000010: 4e6c 01bd 7758 d0bd 95d9 9a3c
0.042315196 0.0128283 -0.021230536 -0.0065032043 -0.031597428 -0.10173123 0.01890258
